init/CartPole_policy.pth (torch_old, 2021 bytes, 6 tensors)

module._layers.0.linear.weight f4 [8, 4]
0	0x3e81cb04	0.253502
1	0x3dfe1260	0.124058485
2	0x3ed938da	0.42426187
3	0xbf0249f2	-0.5089408
4	0xbeeae51c	-0.45877922
5	0x3f2e6cbd	0.6813467
6	0xbf0ac7ab	-0.5421092
7	0x3eb89f86	0.36059207
8	0x3d67aae0	0.056559443
9	0x3f2c3755	0.6727193
10	0xbef4c808	-0.47808862
11	0xbd5c5fe0	-0.05380237
12	0x3d975630	0.07389486
13	0x3ea647ba	0.32476598
14	0x3e9f945e	0.31167883
15	0xbe0cf7dc	-0.13766426
16	0x3e976eda	0.2957676
17	0xbe577f2a	-0.21044603
18	0x3f1557a9	0.58336884
19	0x3f209101	0.6272126
20	0x3eda852a	0.4267972
21	0x3edf2216	0.43580693
22	0x3f0932bf	0.5359306
23	0x3ebd9d06	0.37033862
24	0x3f200365	0.6250518
25	0x3d841568	0.064493954
26	0xbf33bddd	-0.70211583
27	0xbdb6ed08	-0.08931929
28	0xbe1228f4	-0.14273435
29	0xbf0d2548	-0.5513501
30	0xbdc6df60	-0.09710574
31	0x3ebb027a	0.36525327

module._layers.0.linear.bias f4 [8]
0	0x00000000	0.0
1	0x00000000	0.0
2	0x00000000	0.0
3	0x00000000	0.0
4	0x00000000	0.0
5	0x00000000	0.0
6	0x00000000	0.0
7	0x00000000	0.0

module._layers.1.linear.weight f4 [8, 8]
0	0xbecfb1ba	-0.40565282
1	0xbd0cb500	-0.034352303
2	0x3eb21b4e	0.34786457
3	0x3ef610ca	0.48059684
4	0xbea644df	-0.3247442
5	0xbee8ea46	-0.45491236
6	0x3f180f7f	0.59398645
7	0x3f0ac06f	0.5419988
8	0x3e240dbc	0.16020864
9	0xbf1cb464	-0.61212754
10	0xbe439fba	-0.191039
11	0x3e3aa028	0.18225157
12	0xbf1a37e1	-0.60241514
13	0xbf13a67a	-0.576759
14	0x3f1bfc4f	0.6093187
15	0x3d06fe80	0.032957554
16	0x3e3ca758	0.18423212
17	0x3f0fb651	0.5613757
18	0x3d3a62d0	0.04550439
19	0x3ea47d9a	0.32127076
20	0x3ebd1360	0.36928844
21	0x3e984bce	0.29745334
22	0x3dc3daa8	0.0956319
23	0x3dc9ab50	0.098471284
24	0xbf1bb6ce	-0.6082581
25	0x3e917b36	0.28414315
26	0x3f01846b	0.5059268
27	0x3f08b077	0.53394264
28	0xbeacf4f8	-0.33780646
29	0x3f08782f	0.53308386
30	0xbe8a29d7	-0.26985046
31	0xbea2d504	-0.31803143
32	0xbedd0f6f	-0.43175837
33	0x3eacce1a	0.33750993
34	0xbecadc0e	-0.39621013
35	0xbe7067bc	-0.23477072
36	0x3f141cbb	0.5785634
37	0x3f09dc1d	0.5385149
38	0x3eff24a2	0.49832636
39	0xbd90e1d8	-0.07074326
40	0x3ea477b2	0.3212257
41	0x3e1e3570	0.15450072
42	0x3e6fbd10	0.23411965
43	0x3e698788	0.22805607
44	0xbe9ac484	-0.30228055
45	0x3e237d48	0.1596576
46	0x3f112687	0.56699413
47	0xbe5f6074	-0.21814138
48	0x3f180c37	0.5939364
49	0x3dd5d2e8	0.10440618
50	0xbed25d8c	-0.41086996
51	0xbdca01a8	-0.09863597
52	0x3e770f38	0.24126899
53	0x3e4dd230	0.20099711
54	0xbe822dd1	-0.2542558
55	0x3ec6abee	0.38803047
56	0xbe199e40	-0.15001774
57	0x3ee09efe	0.438713
58	0xbd244f30	-0.04011458
59	0xbf0d2885	-0.5513995
60	0x3e4b94d0	0.19880986
61	0x3ec8c4f6	0.3921277
62	0x3eeb8aca	0.46004325
63	0xbd9b9350	-0.07596457

module._layers.1.linear.bias f4 [8]
0	0x00000000	0.0
1	0x00000000	0.0
2	0x00000000	0.0
3	0x00000000	0.0
4	0x00000000	0.0
5	0x00000000	0.0
6	0x00000000	0.0
7	0x00000000	0.0

module._output_layers.0.linear.weight f4 [2, 8]
0	0xbf1e8c04	-0.61932397
1	0x3edd0f5c	0.4317578
2	0x3e41ec88	0.18937886
3	0xbf1760a8	-0.5913186
4	0xbd4235b0	-0.04741448
5	0xbf04dc9e	-0.51899135
6	0x3f0e2696	0.5552763
7	0xbeb46ae7	-0.3523781
8	0x3f110162	0.56642735
9	0x3eaa8b30	0.33309317
10	0xbe409bd8	-0.1880945
11	0xbf294918	-0.6612716
12	0xbf01d90c	-0.5072181
13	0x3e1ff024	0.1561895
14	0xbf3eb86d	-0.7450016
15	0x3f26d2ec	0.6516559

module._output_layers.0.linear.bias f4 [2]
0	0x00000000	0.0
1	0x00000000	0.0
